model.ckpt (torch, 345995 bytes, 67 tensors)

batch_norm1.weight f4 [96]
000000 8d 46 52 3f 65 a1 51 3f 59 0b 52 3f ce 04 51 3f
       0.821389 0.81886894 0.82048565 0.81647956
000010 a6 0d 54 3f 09 01 52 3f b6 07 51 3f c3 86 4f 3f
       0.82833326 0.8203283 0.8165239 0.81065005
000020 7a ad 51 3f 70 46 52 3f ab d3 51 3f a2 ab 51 3f
       0.8190533 0.8213873 0.81963605 0.81902516
000030 ca 48 52 3f d3 cd 51 3f 32 bb 51 3f a2 36 52 3f
       0.8214232 0.8195469 0.8192626 0.82114613
000040 9e 07 52 3f 50 a9 52 3f e3 64 52 3f a1 a9 51 3f
       0.8204287 0.822896 0.8218519 0.8189946
000050 a6 ca 51 3f 42 7f 51 3f c5 47 52 3f 43 b0 51 3f
       0.8194984 0.81834805 0.8214076 0.8190958
000060 c9 82 51 3f d3 98 51 3f 0c 10 52 3f f0 8d 52 3f
       0.8184019 0.81873816 0.82055736 0.8224783
000070 5a 5f 51 3f 5d fd 51 3f 96 ab 51 3f 3d f0 51 3f
       0.8178612 0.82027227 0.81902444 0.820072
000080 77 75 51 3f a1 5f 52 3f fa 43 52 3f 1b 89 51 3f
       0.8181986 0.8217717 0.82134974 0.8184983
000090 98 dd 51 3f 10 72 51 3f c6 fb 51 3f 10 c5 51 3f
       0.8197875 0.8181467 0.820248 0.8194132
0000a0 7a ad 51 3f da d4 52 3f 8f 0e 52 3f b8 61 52 3f
       0.8190533 0.82356036 0.82053465 0.82180357
0000b0 58 a6 51 3f ef 31 52 3f 6e ff 51 3f bf b7 51 3f
       0.81894445 0.8210744 0.8203038 0.81921
0000c0 7a ad 51 3f e8 0b 52 3f 2d 0e 52 3f e3 b5 51 3f
       0.8190533 0.8204942 0.8205288 0.8191816
0000d0 96 bc 52 3f c9 ec 51 3f 46 3d 52 3f d4 e4 51 3f
       0.8231901 0.8200193 0.82124746 0.8198979
0000e0 24 0d 52 3f 1d c1 51 3f dc 10 52 3f 51 17 52 3f
       0.820513 0.8193529 0.82056975 0.8206683
0000f0 79 39 52 3f 19 ea 50 3f 08 be 51 3f 0c cc 51 3f
       0.82118946 0.81607205 0.8193059 0.81951976
000100 77 7a 52 3f e0 17 52 3f 02 27 51 3f 9f 9e 52 3f
       0.82218117 0.8206768 0.81700146 0.82273287
000110 ef b0 52 3f e3 7d 52 3f da ab 52 3f a3 0c 52 3f
       0.8230123 0.8222334 0.82293475 0.8205053
000120 4f 25 53 3f 1d 05 52 3f 43 50 52 3f c1 9a 51 3f
       0.82478803 0.8203905 0.8215372 0.8187676
000130 d9 45 53 3f d3 b4 52 3f f4 9c 51 3f 74 6d 52 3f
       0.82528454 0.82307166 0.81880116 0.8219826
000140 41 0b 53 3f 39 c5 52 3f 9c 0f 51 3f 70 65 56 3f
       0.8243905 0.8233219 0.81664443 0.8374853
000150 b8 4e 52 3f 5d 27 52 3f cb 98 52 3f a6 1c 52 3f
       0.82151365 0.82091314 0.82264394 0.82074964
000160 c1 f6 51 3f 37 63 52 3f 9c 45 52 3f 0b 3b 52 3f
       0.8201714 0.8218264 0.82137465 0.8212134
000170 f2 fb 51 3f 9b 79 53 3f 56 91 51 3f 7a ad 51 3f
       0.82025063 0.8260743 0.8186239 0.8190533

batch_norm1.bias f4 [96]
000000 45 8f 2c 3c f9 59 0c bc 73 79 98 bc cc c6 95 3b
       0.010532205 -0.008566373 -0.018612599 0.0045708176
000010 fb 21 f4 3b 00 b2 91 3c 43 97 27 bc e9 da af 3b
       0.00745034 0.017785072 -0.010228935 0.0053666723
000020 a7 85 b0 b9 ff 05 ad bb 0d aa 81 ba 99 4d 19 bb
       -0.00033668915 -0.005280256 -0.0009892598 -0.00233922
000030 3b 4c 1f 39 48 60 be bc 88 1d 06 3b d2 10 7d 3b
       0.0001519182 -0.02323927 0.002046438 0.0038614762
000040 6c 6d 97 bc 7c 1a 8c bc 63 05 10 bc f4 32 75 ba
       -0.018484794 -0.017102472 -0.008790347 -0.0009353601
000050 3a 9f 84 ba 06 c4 73 3c ae 3e cd bb 28 af 1a 3c
       -0.0010118254 0.014878279 -0.0062635755 0.009441175
000060 47 01 43 3c 64 67 3f 3c bb e8 3e 3c 93 a9 b3 3a
       0.01190216 0.011682365 0.011652167 0.0013707153
000070 89 01 38 3b c7 4a de bb c1 3c f9 3a 41 ad c8 bb
       0.0028077087 -0.0067838165 0.0019015298 -0.006124169
000080 6e b8 12 3c 09 52 ce bc fd 22 6c 3c 8d 33 b1 bb
       0.008955104 -0.025185602 0.014412639 -0.0054077567
000090 37 55 03 3c 35 12 39 3b b0 a7 3f bc 34 33 9d 3c
       0.008015922 0.0028239612 -0.011697695 0.019189455
0000a0 9a 1d 2b 3c d1 f2 80 3b 11 0d f2 bb b7 00 02 3b
       0.010444069 0.003935196 -0.0073868115 0.0019836852
0000b0 fd c9 6d 3c 6a c4 53 bc 03 30 33 bb 51 92 38 bc
       0.01451349 -0.012925247 -0.002734185 -0.011265353
0000c0 cd 0f c6 bb 3d 12 40 bc e8 2d 62 3b 9a 78 67 bc
       -0.006044364 -0.011723098 0.0034512226 -0.014127875
0000d0 a7 d8 80 bc a9 9e 34 bb 5d dc a3 bb 9b c2 30 3c
       -0.015728308 -0.002756039 -0.0050006346 0.010788585
0000e0 32 58 1f 3c 62 8e ca 3b 1f d8 f0 3b 27 e5 28 bc
       0.009725617 0.006181524 0.0073499824 -0.01030854
0000f0 ef 59 eb bb 21 cc c1 3b 78 b2 0a bc 13 9f 15 3b
       -0.007182352 0.0059142266 -0.008465402 0.0022830411
000100 35 e6 f6 bb fc cc 03 bc 0d bc 96 3b 72 e3 50 3a
       -0.007534767 -0.008044478 0.004600054 0.00079684623
000110 e5 ca 16 bc 3f 27 85 bb 83 c3 d8 3c 4a 18 93 3a
       -0.009203647 -0.0040635164 0.026460415 0.0011222449
000120 43 17 f5 3b 7b 0d cd ba 57 48 96 bc 03 22 19 3c
       0.0074795797 -0.0015644276 -0.018345041 0.009346488
000130 dc f4 9a bb 5c 22 bf bb 0e e3 8a bb 9e 91 68 bc
       -0.0047288965 -0.0058329534 -0.004238493 -0.014194874
000140 4b 57 5d 3c e5 7b 9d 3c 7e a0 08 3c aa 35 7c 39
       0.013509582 0.019224117 0.008339046 0.00024052584
000150 bd 3e 74 3b e9 cb d7 3b 90 4b 3d bc 71 9e 73 3b
       0.003726884 0.0065855873 -0.01155366 0.0037173296
000160 bb a9 b6 3b d0 9f 2f bc bb 7c 91 b9 c6 a1 0f bc
       0.0055744327 -0.010719255 -0.00027749487 -0.008766597
000170 98 4e be bb 23 3d 46 3c a1 d4 37 bc a5 6a b9 bb
       -0.005807709 0.012099537 -0.011220128 -0.005658465

batch_norm1.running_mean f4 [96]
000000 00 bf 45 3e ee 41 21 3e 79 1a 9f 3e 0a 65 ad 3e
       0.19311142 0.15747806 0.31074885 0.3386615
000010 96 81 9b 3e 32 3b a7 3a 3a 2c 24 3f d5 f5 5b 3d
       0.30372304 0.001275873 0.64129984 0.05370124
000020 00 00 00 00 f5 0a 31 3f 1b 9c 47 3f 72 20 b5 3f
       0.0 0.69157344 0.77972573 1.4150527
000030 46 5d e8 3e ed a8 ab 3f 6d cb 13 3f 6e d0 c2 3f
       0.45383662 1.3410927 0.5773228 1.5219858
000040 6c 58 aa 3f 8d 4d b6 3f 24 db b9 3f bb 12 2b 3f
       1.3308234 1.4242417 1.4520001 0.66825455
000050 66 5c d4 3e 77 2d 3b 3f 49 96 46 3e 74 04 b5 3f
       0.41476744 0.7311625 0.19393267 1.4141984
000060 b5 d0 3b 3f c3 70 b0 3f 09 e4 af 3f 99 fc 83 3e
       0.73365337 1.3784412 1.3741466 0.25778654
000070 e4 47 d6 3e a2 f1 31 3f 6e 3d b0 3f b2 8c ac 3f
       0.41851723 0.6950933 1.3768747 1.3480437
000080 7c f2 3c 3f 8e 16 3b 3f 68 fe c0 3f 3d aa b4 3f
       0.738075 0.7308129 1.5077639 1.4114453
000090 31 33 ab 3f 51 36 b2 3f 01 47 b2 3f df 28 bf 3f
       1.3374997 1.3922826 1.3927919 1.4934348
0000a0 00 00 00 00 74 60 bb 42 59 8d bd 42 47 68 b6 42
       0.0 93.688385 94.77607 91.20367
0000b0 b2 a1 e2 42 41 f4 cf 42 fe 49 d9 42 f3 11 d2 42
       113.31581 103.97706 108.644516 105.03506
0000c0 00 00 00 00 1c 73 46 41 ac 97 27 bc 76 4a a3 41
       0.0 12.403103 -0.0102290325 20.411358
0000d0 62 8a 83 41 82 9b b6 40 50 93 fa c1 b8 7c 0a 3d
       16.44257 5.706483 -31.32193 0.033810347
0000e0 e7 75 d0 3f eb b5 6c c1 e4 45 d4 3f 65 2d a0 41
       1.6285981 -14.794414 1.6583829 20.022165
0000f0 8e 5c 95 42 4a cf ca 41 65 ad 42 c2 6f 38 e7 c2
       74.68077 25.351215 -48.66933 -115.61022
000100 cc 65 cd be cc ab 62 c2 2b d2 81 c2 04 ce 93 3c
       -0.40116727 -56.66777 -64.910484 0.018042572
000110 ca c9 e4 bd 22 b9 16 c3 3a ed a4 42 14 00 10 43
       -0.11171301 -150.72318 82.46333 144.0003
000120 e4 26 ec 3d 8c 8d 33 ba a9 02 57 c1 74 76 a1 3b
       0.11530855 -0.00068494 -13.438149 0.004927451
000130 37 0e b0 3c c6 be f6 c0 e3 a6 98 bc aa 08 0f bd
       0.021491153 -7.710788 -0.018634265 -0.034920372
000140 4e 09 b3 bd 59 d2 cb 40 d0 69 05 bc 2b 24 2b bd
       -0.08742009 6.369427 -0.008142903 -0.04178254
000150 a0 4d 65 3d b6 db e8 c1 eb 2f 99 c1 b4 3a c6 42
       0.055982232 -29.10728 -19.148397 99.114655
000160 a8 2e 86 c2 79 6e c0 40 b7 9d 8b c2 ce 18 de 3f
       -67.091125 6.0134854 -69.80804 1.735132
000170 c0 4b 71 42 5f a1 ec c1 33 eb 85 42 00 00 00 00
       60.323975 -29.578794 66.95937 0.0

batch_norm1.running_var f4 [96]
000000 ed 8f 1f 3e 9c dd 07 3e 7c 53 5b 3e 2c 5a 65 3e
       0.15582247 0.13268131 0.21418566 0.22397679
000010 e4 8c 58 3e 31 f2 a6 3a ae 8d 6b 3e 51 20 50 3d
       0.21147496 0.0012736974 0.23003265 0.05081207
000020 e1 e7 12 21 71 0f 0b 3f eb 0c 09 3f 6b 71 95 37
       4.9773613e-19 0.54320437 0.53535336 1.7814999e-05
000030 51 f1 cd 3e 79 bd b1 39 62 d7 c1 3e 40 19 c0 37
       0.40223172 0.0003390124 0.37859637 2.2899942e-05
000040 19 97 f0 3d 4b c4 09 3e c4 db ed 37 e4 d6 01 3f
       0.117475696 0.13453786 2.8354938e-05 0.5071852
000050 59 5e c3 3e ef 02 f1 3e f8 0c 4e 3e ae d5 07 3e
       0.3815792 0.4707255 0.20122135 0.13265106
000060 0c a8 f2 3e 4e a7 be 3a 51 9a 62 39 6f 2b 8e 3e
       0.47393835 0.001454571 0.00021610527 0.27767512
000070 a6 22 af 3e c1 d1 d9 3e 0e 9f 04 3a e1 0d 5f 39
       0.34206122 0.42542842 0.00050591014 0.00021272108
000080 a9 96 f5 3e ab c7 f0 3e de e6 1e 3e b8 ed d0 38
       0.47966507 0.47027335 0.15517756 9.9624915e-05
000090 3e 23 f3 3d 2e a6 03 3e 86 bf 03 3e d7 77 17 3e
       0.11871956 0.12856361 0.12866029 0.14791809
0000a0 e1 e7 12 21 1a 06 9e 44 b5 be a1 44 76 fc 95 44
       4.9773613e-19 1264.1907 1293.9596 1199.8894
0000b0 4e ec 54 44 1e 61 33 44 ee 49 44 44 2b 61 37 44
       851.69226 717.51746 785.15515 733.51825
0000c0 e1 e7 12 21 95 a4 67 46 2d d0 d1 3f 41 bf 63 46
       4.9773613e-19 14825.1455 1.6391655 14575.813
0000d0 a8 b4 83 46 ec 93 84 46 6e a0 b7 43 73 41 73 3e
       16858.328 16969.96 367.25336 0.23755436
0000e0 57 39 1c 46 2c f8 83 46 4e 3e 9c 45 7e 01 96 42
       9998.335 16892.086 4999.788 75.002914
0000f0 bc 29 72 46 e9 eb 29 45 2c 77 6d 45 f0 77 82 45
       15498.434 2718.7444 3799.4482 4174.992
000100 40 2b 98 42 16 a5 71 45 d3 59 6a 45 f2 63 36 3e
       76.08447 3866.3179 3749.614 0.17811564
000110 03 d0 c1 3e e3 a0 26 44 70 23 51 44 28 dc 5d 43
       0.37854013 666.51385 836.5537 221.85999
000120 0c b2 f6 3e ec 23 0a 3f 90 c7 27 46 b9 f8 2d 3f
       0.48182714 0.5396106 10737.891 0.67957646
000130 82 46 82 3d 0b 93 85 46 5d c9 5f 3e 35 94 b7 3e
       0.063611045 17097.521 0.21854158 0.3585526
000140 2a 32 b2 3e 6c d6 85 46 35 77 81 3d cb 13 4a 3e
       0.34803897 17131.21 0.06321565 0.19734113
000150 60 2e 95 3d 60 e6 da 45 7a c9 b7 43 02 17 b4 43
       0.07284236 7004.797 367.57404 360.17975
000160 c9 61 cd 45 b2 d8 41 44 ab 95 fe 45 ca 66 89 44
       6572.223 775.38586 8146.7085 1099.2122
000170 f4 fd 8c 45 e6 09 60 45 64 bb 9f 46 e1 e7 12 21
       4511.744 3584.6187 20445.695 4.9773613e-19

conv1.att_src f4 [1, 1, 64]
000000 e3 7d db 3d 6f 9f 1d 3c 25 29 a8 3d e3 85 04 be
       0.1071737 0.009620531 0.08210973 -0.12941699
000010 e1 3a d4 3d e2 12 4e be b4 2d f7 3d a3 75 c6 3c
       0.10362793 -0.2012439 0.12069264 0.024226015
000020 9a c8 c2 bd 03 70 2b 3d 7e f8 a5 3d 8d 60 b7 3d
       -0.09510918 0.04185487 0.08104037 0.089539625
000030 40 bc fa bc 85 ab 22 3e 80 ab e8 3c e3 89 37 3e
       -0.030607343 0.15885742 0.02840209 0.17923693
000040 2f ab fe bb 0f e9 c4 bd 34 c2 25 be 70 9f 70 bd
       -0.0077718715 -0.09614765 -0.16187364 -0.0587458
000050 33 6f 30 be 68 40 2a 3e 84 08 84 bc 9e 06 96 3b
       -0.17229919 0.16626132 -0.016117342 0.0045784255
000060 6d 16 38 3e 4c 77 3a 3e 8e c5 c4 bd 9c 7f 6b bd
       0.17977305 0.1820957 -0.09607993 -0.057494745
000070 1c 00 8c bd 05 cb 0d 3d f3 26 4e bb 3e 63 01 be
       -0.06835958 0.034617443 -0.003145632 -0.12635514
000080 08 00 ee bd 42 fb ab 3d 56 6f f9 3c 5f 9c b2 bd
       -0.116211 0.08397533 0.030448597 -0.08721232
000090 b3 42 09 3c 69 f3 4b 3d 23 fa 34 3e 47 4a 85 bd
       0.008377719 0.04979268 0.17673545 -0.06508308
0000a0 15 de 14 be a6 d1 b2 bd c8 62 ab 3d 46 d0 6b 3d
       -0.14537843 -0.087313935 0.083684504 0.057571672
0000b0 3c c9 4e bd 7f 6e 9e bc 3f c7 6e bd 7b d3 d5 bc
       -0.05048488 -0.019339798 -0.058295485 -0.026101818
0000c0 07 c9 13 3e a8 8b f1 3d 93 0b 0a 3e 18 03 ba 3d
       0.14432155 0.117942154 0.13480978 0.09082621
0000d0 34 ee 08 be a9 05 1c 3e 19 f8 75 bc 4f a8 b0 3c
       -0.13372117 0.15236534 -0.015012764 0.02156463
0000e0 df 53 cd 3c 17 3a a4 3d 2d 52 45 3d 7b 81 d9 bd
       0.025064407 0.08018892 0.048174072 -0.106203996
0000f0 fe 97 83 bd df 85 5d 3e 95 7a 4f 3d 37 a9 ed bd
       -0.064254746 0.21633099 0.050654013 -0.11604541

conv1.att_dst f4 [1, 1, 64]
000000 4e ba 41 bc fc cf 2d 3a bf bc bb bd 9f 9d 8f 3d
       -0.011824204 0.00066304184 -0.0916686 0.07012486
000010 c8 a2 30 3c 9a d7 f1 bb e6 32 66 3d f0 3d 51 bd
       0.010780998 -0.007380438 0.056200884 -0.05108446
000020 54 08 e4 bc 04 92 ba b9 c6 25 bb 3d 88 b0 ba ba
       -0.027836002 -0.00035585475 0.09138064 -0.0014243284
000030 4f 3b b1 b9 fa c5 4d 3c 3c 01 e1 3d 99 46 48 3c
       -0.0003380426 0.012559408 0.109865636 0.012223863
000040 d7 07 e6 3d f1 8a d9 3c 53 9e 0f be 8b 41 47 bb
       0.11231964 0.02655551 -0.1402524 -0.0030404057
000050 e9 b8 6d 3d 1d b5 86 3b a9 d6 db 3c c2 bb 86 bd
       0.058037672 0.004110946 0.026835756 -0.06578781
000060 12 b0 38 bc 9f 5d c9 bc cc 8a 56 bd 2a 69 8b bc
       -0.011272447 -0.024580775 -0.05237846 -0.01701792
000070 1a bb cc bd 39 b9 83 bd 96 42 64 bd 2e b2 1a 3e
       -0.09996624 -0.06431813 -0.055727564 0.15107033
000080 fb 1a 65 3d 83 ba a6 bd 3d f7 d4 bd f5 d1 60 3d
       0.055933934 -0.08141043 -0.103987195 0.05488773
000090 de 8b fb 3b b8 df 39 bc 09 52 47 3c ed 89 db bd
       0.0076765856 -0.011344843 0.012165555 -0.10719667
0000a0 70 ad 47 3c 0b 10 23 3a cc bd db bd c6 7c b8 bc
       0.012187347 0.0006220347 -0.1072956 -0.022520434
0000b0 64 4b 43 bc 91 67 09 bd eb 4c d9 3d a0 c8 40 bc
       -0.01191983 -0.033546034 0.10610374 -0.011766583
0000c0 37 74 15 3c 41 76 50 3c ed c7 b3 3c 48 27 0b 3c
       0.009121946 0.012723506 0.021945918 0.008493252
0000d0 3c 92 0c be d6 8f 7b 3b cf 54 2a 3c 64 8c e8 3d
       -0.13727659 0.0038385293 0.0103961965 0.113549024
0000e0 04 53 a5 3c 53 f8 14 3e 63 5c 14 bc 69 3a 27 bd
       0.020181186 0.14547853 -0.00905523 -0.04082719
0000f0 6b c1 db bd 2c 98 cb bb c7 2b ec 3d c6 09 df 3d
       -0.10730251 -0.0062132087 0.11531787 0.10890536

conv1.bias f4 [64]
000000 4a 1a 20 bc e4 ae 11 3d b7 21 a4 3b 2d 40 b3 bc
       -0.009771893 0.03556718 0.005008902 -0.021881187
000010 a3 3f e0 3c 22 1c 1b 3c 43 91 83 3c e6 76 91 3c
       0.027374094 0.009467157 0.016060477 0.01775689
000020 a4 05 d2 bb 65 59 bc 3c 3d 08 04 3d cd 8a 80 bb
       -0.006409364 0.022991845 0.03223442 -0.0039227963
000030 66 5e 2b 3d f0 d9 52 3c 27 0e f5 3b 19 8c e3 bb
       0.041838072 0.012869343 0.0074784937 -0.006944191
000040 8e 54 0a 3c f2 af bf bc b3 bb c9 bb df 73 25 3d
       0.008443011 -0.023399327 -0.0061564087 0.040393706
000050 a2 2e c1 3c 69 bc ab bb 94 db 5b 3c 62 60 99 bc
       0.023581807 -0.005240966 0.013419051 -0.018722717
000060 05 a2 e4 3b 50 d3 e3 bc fd b1 d3 3b d0 d3 9e 3c
       0.006977322 -0.027810723 0.006460427 0.01938811
000070 0b 31 74 3c 6c 7e f4 bc e0 5f 69 3a 8b 2c 27 3d
       0.014904271 -0.029845439 0.0008902531 0.040813964
000080 7b 0c b5 bc 49 31 72 3c 81 78 a2 b9 47 17 99 3a
       -0.022100678 0.014782258 -0.0003098883 0.0011679911
000090 51 9f 3e bc 91 bb b7 3c b2 24 e6 3c cc b5 dd 3a
       -0.011634664 0.022428306 0.02809367 0.0016915142
0000a0 e3 ba 11 3d 70 00 9a 3c 54 e5 a2 3c 1f 8f ba bc
       0.03557862 0.018799037 0.019884743 -0.022773324
0000b0 cc ad 1a 3d 5c a3 1b 3c c5 db b7 bb dc 88 2d 3c
       0.037763402 0.009499397 -0.0056109154 0.010591712
0000c0 2c cb e8 3b 56 55 d6 bc 5e e6 8f 3c 45 de 63 bc
       0.007104298 -0.026163738 0.017565902 -0.013907974
0000d0 19 78 74 3b 33 b7 da 3b 88 b2 23 3d 47 c0 3c 3d
       0.003730303 0.006674671 0.039965183 0.046081807
0000e0 fe 0d cb 3c e8 35 8a 3b f6 3e 75 3b a8 7a d7 3b
       0.024786945 0.004217852 0.003742156 0.006575901
0000f0 d1 09 1d 3c f0 fe 5b bc 64 7a 78 3c 85 e2 b9 3b
       0.00958486 -0.013427481 0.015165899 0.005672755

conv1.lin_src.weight f4 [64, 96]
000000 8c 8b 15 bd d8 26 7d 3d 3d bd a6 3a b2 aa fa ba
       -0.036510035 0.061804622 0.0012721192 -0.0019124357
000010 a9 cd 77 3d 2a 65 58 3d 7d 9d 60 bc c1 f2 95 3c
       0.060498867 0.052830853 -0.013709423 0.01830423
000020 ab ad 94 3c df a2 dd 3c 90 bf 68 bd 51 04 6c 3c
       0.018149218 0.027055202 -0.056823313 0.014405326
000030 27 45 2f 3d bd eb 50 bd f5 c2 61 3c cf da 3d bd
       0.04279056 -0.051006068 0.013779392 -0.04635125
000040 aa 3f 94 bc 8d d9 b2 bc f1 55 76 bc be d7 d0 3c
       -0.018096764 -0.021832252 -0.015035138 0.025493499
000050 6d 0d b6 3c a2 02 c8 3c 18 2c 49 3c 5c ca d4 bc
       0.022223199 0.024415318 0.012278579 -0.025975399
000060 34 68 46 bc 90 f6 38 bd 2c 49 57 3c a8 bf 5c bd
       -0.012109805 -0.045157015 0.013140004 -0.053893715
000070 e0 7e 50 bc 96 25 d4 3c 6e f0 29 3d c2 5c bd 3a
       -0.012725562 0.025896829 0.041489057 0.00144472
000080 43 7d b8 3c 77 33 2b bd 3f 95 43 bc a7 18 25 bc
       0.022520667 -0.041797128 -0.0119374385 -0.010076678
000090 01 a1 67 bd 15 d6 18 3d b4 b6 54 3d 54 42 04 bd
       -0.05655003 0.03731354 0.05193205 -0.032289818
0000a0 a8 29 62 39 dd c0 2a 3c 5d 4d 36 3c ad b7 47 3d
       0.00021568558 0.010421959 0.011126843 0.04875915
0000b0 fe 2f 59 3d 7b 13 ab 3b f8 c6 01 bd e1 6f 79 bb
       0.053024285 0.005220828 -0.031683892 -0.003806107
0000c0 b1 21 f9 b8 09 e4 3a bc e5 dc 29 bc eb 32 5b bc
       -0.00011879521 -0.011406907 -0.010367607 -0.013378839
0000d0 ec e8 04 3c 08 ca 0a bc 5b c3 73 3d 3c 42 75 bd
       0.0081121735 -0.00847102 0.059512477 -0.05987762
0000e0 5b a3 f1 bb bd e5 8e bd f2 03 2e 3b 31 85 83 bd
       -0.00737421 -0.06977413 0.0026552645 -0.064218886
0000f0 1d 37 d7 3c 2a 41 c9 3a 90 fb 86 3d 1a 87 28 3d
       0.026271397 0.0015354503 0.065909505 0.041144468
000100 6c 69 f9 bc 08 91 55 bb 4c 11 9c 3b 65 87 20 ba
       -0.030445777 -0.0032587666 0.004762804 -0.0006123691
000110 d9 f2 3c 3b 0e 4b 37 3d 50 1a 5c 3d 2f 38 f1 bc
       0.0028831272 0.044749312 0.05373603 -0.029445736
000120 cc 1e 97 3d 64 33 df 3c 65 76 a6 3c 64 01 9d bc
       0.07378921 0.027246185 0.020320127 -0.019165702
000130 e0 e6 96 bd 86 72 26 bd e4 5b 80 3b 6c 4f 2b 3d
       -0.07368255 -0.04063656 0.003917204 0.04182379
000140 1d 89 71 bd b3 24 ff 3c ff 07 a5 ba 69 3f 3e bd
       -0.058968652 0.03114543 -0.0012590884 -0.04644719
000150 bc 7f 22 3d 04 ca 67 bd 7d 7e ce 3c 64 c5 55 3d
       0.0396726 -0.05658914 0.025206799 0.0521902
000160 74 36 2b 3d 26 b7 ed 3c 74 bd 0e bc 5e 37 39 3c
       0.041799977 0.029017996 -0.008712161 0.0113047045
000170 23 0c 00 3d 8b 0b a3 3c ab f0 86 bb 37 53 f3 b8
       0.031261574 0.019902965 -0.0041180453 -0.00011602643
000180 10 6f cf bc 48 14 4f bd ac ed 9b bd 69 51 dc 3d
       -0.025321513 -0.05055645 -0.07613692 0.10757715
000190 19 52 90 3d 8e 5b 48 bc 22 56 d4 bd 57 48 d0 bc
       0.07046909 -0.01222886 -0.10367991 -0.02542512
0001a0 8d 1d 2b bd 6c 26 aa 3c 6a b3 13 3d 0e 58 f5 bc
       -0.04177623 0.020770274 0.036059774 -0.029949214
0001b0 a5 20 ab bd ef 58 58 bd 41 74 bd 3d 7f 9c 6d 3c
       -0.08355836 -0.05281919 0.09250689 0.014502644
0001c0 af 4e 56 3b 98 8a 22 bd 6b 60 a1 3c 07 55 9e bc
       0.0032700708 -0.039682955 0.019699296 -0.019327654
0001d0 ef 11 d0 3c c6 fb 3d bd 80 1a 78 bd 22 b6 a1 3d
       0.025399176 -0.046382688 -0.060572147 0.07896067
0001e0 84 e4 9b bc 8d 09 79 3d a0 cd 61 3c 38 ac 8f 3c
       -0.019029863 0.060800124 0.013781935 0.017538175
0001f0 56 e7 4a 3d 2c 35 e5 3b 81 79 a5 3d 48 ac 92 ba
       0.049537025 0.006994864 0.08079816 -0.001119026
000200 e2 7b 3d 3d 88 26 ad bd b9 73 8b 3d 6b f6 1b bc
       0.046260722 -0.08454615 0.06809182 -0.0095192
000210 a4 90 3d bc 41 78 87 3d 4f 15 ea ba fc 8e 97 3d
       -0.01157013 0.066147335 -0.0017859134 0.07400319
000220 5e 29 97 bb ff da 16 bd 2d 63 93 bd b3 14 b0 bb
       -0.0046130856 -0.036829945 -0.07196651 -0.0053735613
000230 94 fa 10 3d 89 26 2b 3d 7e 1d 03 bd 38 0a e3 bc
       0.03539522 0.041784797 -0.032010548 -0.027714834
000240 2d c4 9a b8 52 47 03 bd f1 6d a7 bc 3c 10 23 bd
       -7.379833e-05 -0.03205044 -0.020438166 -0.039810404
000250 23 e3 b6 bd 12 08 ee bc ec c7 07 3d 3b c4 23 3d
       -0.08930042 -0.029056583 0.033149645 0.03998206
000260 d9 c7 74 3c a0 20 8f 3c 47 80 e7 3b 80 87 24 3d
       0.0149402255 0.017471611 0.0070648524 0.040168285
000270 66 70 4b bc ae 69 db bc d7 82 31 bc 8b b3 8d 3d
       -0.012416935 -0.02678379 -0.010834417 0.06919011
000280 a5 f7 a5 3b 0c ae 1d bd 5e 78 13 3d 70 c9 9c 3d
       0.005064922 -0.038496062 0.036003463 0.07655609
000290 a1 56 6e bb 25 fd 73 bd 24 0d 88 3d 8a f5 67 3d
       -0.0036367553 -0.05956759 0.066431314 0.05663065
0002a0 fa 55 c4 bd c8 bf d3 bc 9a 0a be bb 8d d2 4a bd
       -0.09586711 -0.025848284 -0.0057996036 -0.049517203
0002b0 59 11 e2 3d 28 c5 41 bd 23 eb 8b 3d 75 3f 89 3d
       0.11038465 -0.047307163 0.06831958 0.067015566
0002c0 01 af cb 3b e4 28 85 3d 17 7c dc bb 18 65 15 bd
       0.0062159305 0.0650194 -0.00672866 -0.036473364
0002d0 bd 2d 39 3b 93 dd b3 bc 10 22 a7 bc d3 d7 7c bd
       0.0028256022 -0.02195624 -0.020401984 -0.061729264
0002e0 0b 6c 8e 3d 1c c8 74 bc a0 cf 6f bb 28 5b d5 3d
       0.06954201 -0.014940288 -0.003659226 0.10417777
0002f0 8e 99 7e bc ba 21 15 3e 71 20 3a bd 1d ce 98 b8
       -0.01553954 0.14563647 -0.045441095 -7.2863164e-05
000300 db 1e 60 bc df 1c 9e bc e6 38 59 3b 11 4c 41 bc
       -0.0136792315 -0.019300876 0.0033145486 -0.011797921
000310 09 28 82 bd 96 65 fd bc 9c 30 ea 3c c2 6d 16 3e
       -0.06355292 -0.030932229 0.028587632 0.14690307
000320 58 f2 74 3b 54 37 7f bd 42 b6 0c bc 51 a1 14 bd
       0.0037375893 -0.062308624 -0.0085883755 -0.036286656
000330 3e bc 06 bd 55 9b 01 3d 5f bd 2b bd d4 8d dd bc
       -0.032894365 0.031642277 -0.041928645 -0.027045168
000340 6e 69 f1 3c 77 9d a1 bc f7 f5 a9 bc a0 b0 b3 bc
       0.029469218 -0.019728405 -0.020747168 -0.021934807
000350 88 79 bd 3c 5c e6 5c bd f2 6a fb 3c d2 7d ac bd
       0.02312924 -0.053930625 0.030690644 -0.08422436
000360 f9 47 9b bc 0c e4 9a ba 05 66 73 3c a2 d8 74 3b
       -0.018955218 -0.0011817231 0.014855866 0.0037360569
000370 bd d0 28 bc 16 65 98 3c ee 79 b8 39 ab eb 8d bc
       -0.010303673 0.018602889 0.0003518606 -0.01732429
000380 ad 5a 09 3d bd 6e e9 bc f4 6c 2d bd b8 19 52 bd
       0.03353374 -0.028495187 -0.042340234 -0.05129406
000390 a6 bb 45 3d a4 51 82 bc 20 0d d0 3c 4d 00 e0 3c
       0.04827466 -0.01590807 0.025396883 0.027343893
0003a0 2a f5 8a bc a6 dc 55 bd f4 89 ee 3c 72 fb ca bb
       -0.016962606 -0.05221238 0.029118516 -0.0061945254
0003b0 d5 b6 19 bd ab 0e 98 bd 79 2f 55 bd 01 b1 ca ba
       -0.037527878 -0.07424673 -0.052047227 -0.0015464128
0003c0 4c 27 84 3c 75 40 70 3d fc 19 73 bd e5 25 2d bc
       0.01613202 0.05865522 -0.059350953 -0.010568117
0003d0 c8 10 80 ba b4 31 78 3c bb 2a 94 bc 06 ef be bc
       -0.0009770626 0.015148569 -0.018086782 -0.023307335
0003e0 76 63 b8 3a 9d d6 33 3d e9 84 66 3d 68 ff 70 bb
       0.0014067728 0.043905843 0.056279097 -0.0036773328
0003f0 dc 3d 86 bd 60 2f b9 bb 55 89 81 3c ec 91 19 bd
       -0.065547675 -0.0056513995 0.015812555 -0.037492678

conv1.lin_dst.weight f4 [64, 96]
000000 8c 8b 15 bd d8 26 7d 3d 3d bd a6 3a b2 aa fa ba
       -0.036510035 0.061804622 0.0012721192 -0.0019124357
000010 a9 cd 77 3d 2a 65 58 3d 7d 9d 60 bc c1 f2 95 3c
       0.060498867 0.052830853 -0.013709423 0.01830423
000020 ab ad 94 3c df a2 dd 3c 90 bf 68 bd 51 04 6c 3c
       0.018149218 0.027055202 -0.056823313 0.014405326
000030 27 45 2f 3d bd eb 50 bd f5 c2 61 3c cf da 3d bd
       0.04279056 -0.051006068 0.013779392 -0.04635125
000040 aa 3f 94 bc 8d d9 b2 bc f1 55 76 bc be d7 d0 3c
       -0.018096764 -0.021832252 -0.015035138 0.025493499
000050 6d 0d b6 3c a2 02 c8 3c 18 2c 49 3c 5c ca d4 bc
       0.022223199 0.024415318 0.012278579 -0.025975399
000060 34 68 46 bc 90 f6 38 bd 2c 49 57 3c a8 bf 5c bd
       -0.012109805 -0.045157015 0.013140004 -0.053893715
000070 e0 7e 50 bc 96 25 d4 3c 6e f0 29 3d c2 5c bd 3a
       -0.012725562 0.025896829 0.041489057 0.00144472
000080 43 7d b8 3c 77 33 2b bd 3f 95 43 bc a7 18 25 bc
       0.022520667 -0.041797128 -0.0119374385 -0.010076678
000090 01 a1 67 bd 15 d6 18 3d b4 b6 54 3d 54 42 04 bd
       -0.05655003 0.03731354 0.05193205 -0.032289818
0000a0 a8 29 62 39 dd c0 2a 3c 5d 4d 36 3c ad b7 47 3d
       0.00021568558 0.010421959 0.011126843 0.04875915
0000b0 fe 2f 59 3d 7b 13 ab 3b f8 c6 01 bd e1 6f 79 bb
       0.053024285 0.005220828 -0.031683892 -0.003806107
0000c0 b1 21 f9 b8 09 e4 3a bc e5 dc 29 bc eb 32 5b bc
       -0.00011879521 -0.011406907 -0.010367607 -0.013378839
0000d0 ec e8 04 3c 08 ca 0a bc 5b c3 73 3d 3c 42 75 bd
       0.0081121735 -0.00847102 0.059512477 -0.05987762
0000e0 5b a3 f1 bb bd e5 8e bd f2 03 2e 3b 31 85 83 bd
       -0.00737421 -0.06977413 0.0026552645 -0.064218886
0000f0 1d 37 d7 3c 2a 41 c9 3a 90 fb 86 3d 1a 87 28 3d
       0.026271397 0.0015354503 0.065909505 0.041144468
000100 6c 69 f9 bc 08 91 55 bb 4c 11 9c 3b 65 87 20 ba
       -0.030445777 -0.0032587666 0.004762804 -0.0006123691
000110 d9 f2 3c 3b 0e 4b 37 3d 50 1a 5c 3d 2f 38 f1 bc
       0.0028831272 0.044749312 0.05373603 -0.029445736
000120 cc 1e 97 3d 64 33 df 3c 65 76 a6 3c 64 01 9d bc
       0.07378921 0.027246185 0.020320127 -0.019165702
000130 e0 e6 96 bd 86 72 26 bd e4 5b 80 3b 6c 4f 2b 3d
       -0.07368255 -0.04063656 0.003917204 0.04182379
000140 1d 89 71 bd b3 24 ff 3c ff 07 a5 ba 69 3f 3e bd
       -0.058968652 0.03114543 -0.0012590884 -0.04644719
000150 bc 7f 22 3d 04 ca 67 bd 7d 7e ce 3c 64 c5 55 3d
       0.0396726 -0.05658914 0.025206799 0.0521902
000160 74 36 2b 3d 26 b7 ed 3c 74 bd 0e bc 5e 37 39 3c
       0.041799977 0.029017996 -0.008712161 0.0113047045
000170 23 0c 00 3d 8b 0b a3 3c ab f0 86 bb 37 53 f3 b8
       0.031261574 0.019902965 -0.0041180453 -0.00011602643
000180 10 6f cf bc 48 14 4f bd ac ed 9b bd 69 51 dc 3d
       -0.025321513 -0.05055645 -0.07613692 0.10757715
000190 19 52 90 3d 8e 5b 48 bc 22 56 d4 bd 57 48 d0 bc
       0.07046909 -0.01222886 -0.10367991 -0.02542512
0001a0 8d 1d 2b bd 6c 26 aa 3c 6a b3 13 3d 0e 58 f5 bc
       -0.04177623 0.020770274 0.036059774 -0.029949214
0001b0 a5 20 ab bd ef 58 58 bd 41 74 bd 3d 7f 9c 6d 3c
       -0.08355836 -0.05281919 0.09250689 0.014502644
0001c0 af 4e 56 3b 98 8a 22 bd 6b 60 a1 3c 07 55 9e bc
       0.0032700708 -0.039682955 0.019699296 -0.019327654
0001d0 ef 11 d0 3c c6 fb 3d bd 80 1a 78 bd 22 b6 a1 3d
       0.025399176 -0.046382688 -0.060572147 0.07896067
0001e0 84 e4 9b bc 8d 09 79 3d a0 cd 61 3c 38 ac 8f 3c
       -0.019029863 0.060800124 0.013781935 0.017538175
0001f0 56 e7 4a 3d 2c 35 e5 3b 81 79 a5 3d 48 ac 92 ba
       0.049537025 0.006994864 0.08079816 -0.001119026
000200 e2 7b 3d 3d 88 26 ad bd b9 73 8b 3d 6b f6 1b bc
       0.046260722 -0.08454615 0.06809182 -0.0095192
000210 a4 90 3d bc 41 78 87 3d 4f 15 ea ba fc 8e 97 3d
       -0.01157013 0.066147335 -0.0017859134 0.07400319
000220 5e 29 97 bb ff da 16 bd 2d 63 93 bd b3 14 b0 bb
       -0.0046130856 -0.036829945 -0.07196651 -0.0053735613
000230 94 fa 10 3d 89 26 2b 3d 7e 1d 03 bd 38 0a e3 bc
       0.03539522 0.041784797 -0.032010548 -0.027714834
000240 2d c4 9a b8 52 47 03 bd f1 6d a7 bc 3c 10 23 bd
       -7.379833e-05 -0.03205044 -0.020438166 -0.039810404
000250 23 e3 b6 bd 12 08 ee bc ec c7 07 3d 3b c4 23 3d
       -0.08930042 -0.029056583 0.033149645 0.03998206
000260 d9 c7 74 3c a0 20 8f 3c 47 80 e7 3b 80 87 24 3d
       0.0149402255 0.017471611 0.0070648524 0.040168285
000270 66 70 4b bc ae 69 db bc d7 82 31 bc 8b b3 8d 3d
       -0.012416935 -0.02678379 -0.010834417 0.06919011
000280 a5 f7 a5 3b 0c ae 1d bd 5e 78 13 3d 70 c9 9c 3d
       0.005064922 -0.038496062 0.036003463 0.07655609
000290 a1 56 6e bb 25 fd 73 bd 24 0d 88 3d 8a f5 67 3d
       -0.0036367553 -0.05956759 0.066431314 0.05663065
0002a0 fa 55 c4 bd c8 bf d3 bc 9a 0a be bb 8d d2 4a bd
       -0.09586711 -0.025848284 -0.0057996036 -0.049517203
0002b0 59 11 e2 3d 28 c5 41 bd 23 eb 8b 3d 75 3f 89 3d
       0.11038465 -0.047307163 0.06831958 0.067015566
0002c0 01 af cb 3b e4 28 85 3d 17 7c dc bb 18 65 15 bd
       0.0062159305 0.0650194 -0.00672866 -0.036473364
0002d0 bd 2d 39 3b 93 dd b3 bc 10 22 a7 bc d3 d7 7c bd
       0.0028256022 -0.02195624 -0.020401984 -0.061729264
0002e0 0b 6c 8e 3d 1c c8 74 bc a0 cf 6f bb 28 5b d5 3d
       0.06954201 -0.014940288 -0.003659226 0.10417777
0002f0 8e 99 7e bc ba 21 15 3e 71 20 3a bd 1d ce 98 b8
       -0.01553954 0.14563647 -0.045441095 -7.2863164e-05
000300 db 1e 60 bc df 1c 9e bc e6 38 59 3b 11 4c 41 bc
       -0.0136792315 -0.019300876 0.0033145486 -0.011797921
000310 09 28 82 bd 96 65 fd bc 9c 30 ea 3c c2 6d 16 3e
       -0.06355292 -0.030932229 0.028587632 0.14690307
000320 58 f2 74 3b 54 37 7f bd 42 b6 0c bc 51 a1 14 bd
       0.0037375893 -0.062308624 -0.0085883755 -0.036286656
000330 3e bc 06 bd 55 9b 01 3d 5f bd 2b bd d4 8d dd bc
       -0.032894365 0.031642277 -0.041928645 -0.027045168
000340 6e 69 f1 3c 77 9d a1 bc f7 f5 a9 bc a0 b0 b3 bc
       0.029469218 -0.019728405 -0.020747168 -0.021934807
000350 88 79 bd 3c 5c e6 5c bd f2 6a fb 3c d2 7d ac bd
       0.02312924 -0.053930625 0.030690644 -0.08422436
000360 f9 47 9b bc 0c e4 9a ba 05 66 73 3c a2 d8 74 3b
       -0.018955218 -0.0011817231 0.014855866 0.0037360569
000370 bd d0 28 bc 16 65 98 3c ee 79 b8 39 ab eb 8d bc
       -0.010303673 0.018602889 0.0003518606 -0.01732429
000380 ad 5a 09 3d bd 6e e9 bc f4 6c 2d bd b8 19 52 bd
       0.03353374 -0.028495187 -0.042340234 -0.05129406
000390 a6 bb 45 3d a4 51 82 bc 20 0d d0 3c 4d 00 e0 3c
       0.04827466 -0.01590807 0.025396883 0.027343893
0003a0 2a f5 8a bc a6 dc 55 bd f4 89 ee 3c 72 fb ca bb
       -0.016962606 -0.05221238 0.029118516 -0.0061945254
0003b0 d5 b6 19 bd ab 0e 98 bd 79 2f 55 bd 01 b1 ca ba
       -0.037527878 -0.07424673 -0.052047227 -0.0015464128
0003c0 4c 27 84 3c 75 40 70 3d fc 19 73 bd e5 25 2d bc
       0.01613202 0.05865522 -0.059350953 -0.010568117
0003d0 c8 10 80 ba b4 31 78 3c bb 2a 94 bc 06 ef be bc
       -0.0009770626 0.015148569 -0.018086782 -0.023307335
0003e0 76 63 b8 3a 9d d6 33 3d e9 84 66 3d 68 ff 70 bb
       0.0014067728 0.043905843 0.056279097 -0.0036773328
0003f0 dc 3d 86 bd 60 2f b9 bb 55 89 81 3c ec 91 19 bd
       -0.065547675 -0.0056513995 0.015812555 -0.037492678

batch_norm2.weight f4 [64]
000000 2c 7f 52 3f 0c 21 52 3f c6 fe 50 3f 16 7e 52 3f
       0.822253 0.82081676 0.81638753 0.8222364
000010 47 22 52 3f 0a eb 51 3f 8e b7 50 3f 69 e4 51 3f
       0.82083553 0.81999266 0.8153008 0.8198915
000020 70 7e 51 3f 17 8c 51 3f 70 90 51 3f df 16 52 3f
       0.81833553 0.81854385 0.8186102 0.8206615
000030 f6 70 51 3f 40 49 52 3f a9 84 51 3f 9a 32 53 3f
       0.8181299 0.8214302 0.8184305 0.82499087
000040 0b 56 52 3f 30 e8 51 3f f6 38 52 3f 0d 44 51 3f
       0.8216254 0.81994915 0.82118165 0.8174446
000050 fd 77 51 3f 0a 09 52 3f 3d 93 51 3f 4d 3a 52 3f
       0.8182371 0.8204504 0.8186529 0.8212021
000060 55 61 51 3f c5 40 52 3f 11 ab 51 3f cb 2b 52 3f
       0.8178914 0.8213008 0.8190165 0.8209807
000070 3a ef 51 3f 47 1b 52 3f 3a 11 52 3f ab 17 52 3f
       0.82005656 0.8207287 0.82057536 0.82067364
000080 6b 35 52 3f 16 b5 51 3f c8 e3 51 3f 89 11 52 3f
       0.8211276 0.8191694 0.8198819 0.82058007
000090 00 6b 51 3f e0 02 52 3f f6 09 52 3f 58 5d 52 3f
       0.81803894 0.82035637 0.8204645 0.8217368
0000a0 cc 33 51 3f 29 0e 52 3f 4e a7 52 3f ac fa 52 3f
       0.8171966 0.82052857 0.82286537 0.82413745
0000b0 2c d0 51 3f ce 92 52 3f c6 08 52 3f 99 39 52 3f
       0.8195827 0.82255256 0.8204464 0.8211914
0000c0 15 cc 51 3f 17 47 52 3f b8 81 52 3f 68 95 52 3f
       0.8195203 0.82139724 0.82229185 0.82259226
0000d0 95 07 52 3f a5 a2 50 3f c9 2e 51 3f 99 e3 52 3f
       0.8204282 0.81498176 0.81712013 0.82378536
0000e0 fe 16 52 3f 6c 6f 51 3f 05 97 51 3f 8f 6e 51 3f
       0.82066333 0.8181064 0.8187106 0.81809324
0000f0 49 c1 51 3f 93 b4 51 3f 42 27 52 3f f1 c3 50 3f
       0.81935555 0.8191616 0.8209115 0.8154898

batch_norm2.bias f4 [64]
000000 43 79 04 3c 6c bc 09 bc 1b 54 03 3c ab 2c 40 3c
       0.008085552 -0.00840674 0.008015658 0.0117294
000010 53 28 9c bb 8f bf 52 3b 44 ac c3 bb 11 f1 0c 3c
       -0.004765549 0.0032157635 -0.0059714634 0.008602397
000020 fa c2 a8 bb 45 1e 1d 3c f0 fd ab 3b b8 ea 1a 39
       -0.005150196 0.009589736 0.0052487776 0.00014774024
000030 0b 6b 13 3c 79 49 99 3b 0a 63 46 ba c2 d0 0d 3c
       0.008997689 0.004677948 -0.00075678586 0.008655729
000040 2c 46 f5 3b d9 8f 36 bb da 8e af 3b fb 2a 00 bc
       0.007485172 -0.0027856736 0.0053576054 -0.007822747
000050 3e 16 2d bc 68 03 f6 bb 7e 12 26 3c 35 b4 4f bc
       -0.010564385 -0.0075077303 0.010136245 -0.012677242
000060 21 34 88 3a 0b df 74 bb bf 4c f4 bb e6 32 ab 3b
       0.0010391512 -0.003736439 -0.007455438 0.0052245734
000070 b3 72 f0 b9 33 37 be 3b fb 8e 7f 3c f2 a1 13 bc
       -0.00045861825 0.00580492 0.015598054 -0.009010779
000080 1e 71 47 3c 22 1e 94 ba 09 82 59 bb dd 3f 1c 3c
       0.012172965 -0.0011300484 -0.003318908 0.009536711
000090 b8 7e 7b 3b 8d 00 1b 3c 71 3e c8 ba 8c f1 93 3b
       0.003837509 0.009460581 -0.0015277398 0.0045148786
0000a0 9c a0 bf 3b 51 85 33 3b 62 93 8b ba f3 f3 1d bc
       0.0058480036 0.0027392695 -0.0010648782 -0.009640682
0000b0 9d d2 d5 bb 8f 02 20 bc 94 3d 4c bb 75 0e 80 3b
       -0.006525351 -0.009766235 -0.0031164633 0.0039079734
0000c0 ea 6b 8c 3c 6b 73 08 bb d8 9c e2 ba c9 fd 5b 3c
       0.017141301 -0.0020820748 -0.0017289175 0.013427206
0000d0 e9 03 83 bb 91 6b a1 bb b3 f1 39 3b 7c 78 95 3b
       -0.003998269 -0.004926153 0.0028372824 0.004561482
0000e0 df 69 09 bc 01 d7 03 bb cf 32 04 3c c1 fa 82 3b
       -0.008387058 -0.0020117166 0.008068754 0.0039971774
0000f0 ec 0d 0c 3c 18 1e bd bb 0d 05 dd 39 48 3a d3 3b
       0.008548241 -0.0057714097 0.00042156168 0.0064461567

batch_norm2.running_mean f4 [64]
000000 58 6a 36 3d 3d b3 a7 3d ca 00 75 3d ce e6 1b 3d
       0.04453501 0.08188484 0.059815206 0.03806191
000010 86 08 f4 3d c3 02 7f 3d ac 1d 92 3d 53 60 64 3d
       0.11915688 0.062258493 0.07134566 0.055755924
000020 cb e9 30 3d 88 68 98 3d 5b 0e ae 3d 37 7d 41 3d
       0.043191712 0.07441813 0.08498832 0.047238555
000030 fe 14 8b 3d 6f 05 b5 3d e2 b6 b2 3d 41 43 e8 3d
       0.06791113 0.08838927 0.087262884 0.11340953
000040 4f a6 5f 3d df 29 36 3d 79 dc 43 3d 47 73 84 3d
       0.054601964 0.044473525 0.04781768 0.064673
000050 00 5e bc 3d fc a5 53 3d 0b 50 7d 3d 0d 96 b2 3c
       0.091976166 0.051671967 0.061843913 0.021800065
000060 8a f3 88 3d 69 c6 73 3d 02 c2 72 3d fd 08 4b 3d
       0.066870764 0.05951539 0.05926705 0.04956912
000070 c5 54 97 3d 23 e6 dd 3c 8e bc 82 3d ed 11 ff 3d
       0.073892154 0.027087277 0.0638362 0.12454591
000080 46 aa 29 3d e4 b4 a9 3d 56 00 6a 3d 2c 1b 7c 3d
       0.04142215 0.08286455 0.057129227 0.06154935
000090 cc ca e8 3c c7 45 3b 3d 26 0e a4 3d 54 66 3f 3d
       0.028417014 0.04572084 0.08010511 0.046728447
0000a0 cf 0d 9a 3d f2 e7 3c 3d 6e 73 96 3d 2b 20 88 3d
       0.07522165 0.046119638 0.07346235 0.066467606
0000b0 2b 4d 95 3d 71 86 62 3d 61 98 44 3d 99 e8 72 3d
       0.07290109 0.055303995 0.047996882 0.059303854
0000c0 60 0c 8c 3d 1e 3b 50 3d 3b 96 62 3d de 3b 44 3d
       0.06838298 0.05083763 0.055319052 0.047908656
0000d0 41 de 7b 3d 99 00 bf 3d 4e c6 99 3d 84 99 c2 3d
       0.061491255 0.09326286 0.07508527 0.09501937
0000e0 75 b6 64 3d 8e 02 89 3d 21 b1 49 3d 48 72 73 3d
       0.055838067 0.066899404 0.04924119 0.05943516
0000f0 71 b6 53 3d 65 ab b0 3d 8c 0d 41 3d 5d ad 62 3d
       0.05168766 0.08626441 0.04713206 0.055341113

batch_norm2.running_var f4 [64]
000000 a2 fe 15 3c e9 34 24 3c b2 c3 55 3c 89 13 e3 3b
       0.0091549475 0.01002238 0.013047146 0.006929819
000010 0e 75 9e 3c 28 27 90 3c bb 94 6f 3c 1f 5c 4f 3c
       0.019342925 0.017596796 0.014622862 0.012656241
000020 ad 73 f3 3b b5 f4 3e 3c b0 de 08 3c 5f fa d5 3b
       0.007429561 0.011655022 0.008353874 0.0065300907
000030 0c 93 1f 3c ad 8e 74 3c 34 31 5b 3c 3e 9a c5 3c
       0.009739649 0.014926595 0.01337843 0.0241214
000040 30 fb eb 3b ef 0a 1e 3c 84 eb 78 3c 76 73 4b 3c
       0.0072015747 0.009646161 0.01519287 0.012417665
000050 3f 08 8f 3c db 13 21 3c 51 bf 00 3c fc 18 2a 3b
       0.017459987 0.009831394 0.007858113 0.0025954833
000060 67 33 3b 3c 7b 9e 17 3c 13 f5 2c 3c 81 6c d9 3b
       0.0114258295 0.009254093 0.010556477 0.006635249
000070 29 39 2f 3c f7 60 c3 3b 23 f7 d1 3b 58 69 5c 3c
       0.01069478 0.005962487 0.006407635 0.01345285
000080 02 51 0b 3c d7 01 9f 3c 90 7e 25 3c 2f a8 fa 3b
       0.0085032005 0.019410057 0.010100976 0.0076494436
000090 97 70 86 3b 54 34 9a 3b 49 4a 5d 3c 26 2e ef 3b
       0.004102777 0.004705945 0.0135064805 0.0072992025
0000a0 c9 32 4e 3c ef f0 df 3b 70 71 06 3c fa 57 6a 3c
       0.01258535 0.0068341414 0.008205757 0.014303202
0000b0 9b b0 d8 3b f8 c4 5b 3c 5a 4b ed 3b d3 c7 2e 3c
       0.00661285 0.01341366 0.0072416486 0.010667759
0000c0 aa 6d 0f 3c 27 73 a7 3b 6a 6d cc 3b 0c 3a 29 3c
       0.008754173 0.005110163 0.006238629 0.010328781
0000d0 aa d4 4b 3c d5 ac 5a 3c 46 c4 03 3c 00 80 18 3c
       0.01244084 0.01334687 0.008042401 0.009307861
0000e0 be 8b ba 3b 67 14 1c 3c 97 18 ff 3b a7 1d 23 3c
       0.005692928 0.009526349 0.0077849138 0.0099558
0000f0 c3 c3 3a 3c 71 a5 88 3c 1c 16 5a 3b 54 1a 00 3c
       0.011399212 0.016680451 0.0033277338 0.007818777

conv2.bias f4 [96]
000000 26 55 5f 3c 8c 1a a0 bb ee 4e 8d bc 48 14 21 bc
       0.013631141 -0.004885977 -0.01724955 -0.009831496
000010 2c 38 c8 3c 74 4e 2c bc 7a e4 b9 3c cf 74 c3 bc
       0.024440847 -0.010516752 0.022691954 -0.02385941
000020 8c a7 d5 b9 2d 91 14 3b 02 9c e3 bb 1c 9a 87 3a
       -0.00040751358 0.002266954 -0.006946088 0.0010345611
000030 52 03 69 3c 02 38 cc 3c 58 e6 a0 bb a4 ff 00 3c
       0.014221983 0.02492905 -0.0049102716 0.0078734495
000040 4f 66 93 bc 32 c4 ac 3c f3 60 69 3c d3 38 8b 3b
       -0.01799312 0.021089647 0.014244306 0.0042487173
000050 e9 45 00 3c 2b b5 64 ba d3 d7 ff bb 21 63 66 3c
       0.007829168 -0.0008724506 -0.0078077107 0.01406172
000060 72 51 24 3b a4 6b 52 bc 70 84 04 3c 41 9c 86 3b
       0.002507296 -0.012843046 0.008088216 0.0041079824
000070 a5 fb 98 bb 40 6c 60 bc 18 3f 8f 3c 47 b7 39 3b
       -0.0046686702 -0.013697684 0.01748614 0.0028338002
000080 06 60 d1 bc 88 5d 16 3c 2d 8f 4e 3c 95 21 b9 3c
       -0.025558483 0.009177573 0.012607378 0.022599021
000090 25 09 b4 bb b4 62 ae 3a bf 62 b2 3c bf 6d 53 bc
       -0.005494254 0.0013304562 0.021775601 -0.0129045835
0000a0 2c 4a 8c bb dd a0 c5 3a 36 f5 4a bb 17 a3 29 3b
       -0.004281303 0.0015077848 -0.003096891 0.0025884563
0000b0 96 a3 8e 3b aa ac 88 3a a3 2f 59 3c bb a3 05 bd
       0.004352997 0.0010427434 0.013255986 -0.03262685
0000c0 a2 38 83 3a 2e dc 58 bb 6a 87 cb bb af 25 ff bb
       0.0010011385 -0.0033090222 -0.006211211 -0.0077864747
0000d0 7f 9a c6 bb b8 92 35 3a 33 3a 8e 3b d6 7a 54 bb
       -0.006060898 0.0006926465 0.004340434 -0.0032421849
0000e0 ea 81 d9 3b d7 1f 68 bc 5d 49 bb 3b 26 60 e9 3c
       0.0066378014 -0.014167747 0.0057155327 0.02848823
0000f0 30 67 f4 3b cb 30 e5 bb 50 62 19 ba aa 64 b5 3a
       0.00745859 -0.006994342 -0.00058511365 0.0013839204
000100 61 98 79 ba 07 5d a7 bb 4f b8 83 bc 5a c7 2a bc
       -0.00095213024 -0.0051075253 -0.016079096 -0.010423506
000110 62 84 1c 3c 00 ee b8 3c 86 9a 1f 3c 3f ef 1f ba
       0.009553047 0.022574425 0.009741431 -0.0006101019
000120 e7 3d 3e 3c e9 cc 0a 3d a4 d3 6a bb 91 ab a4 bb
       0.011611438 0.033886824 -0.0035831714 -0.005025335
000130 e8 63 0b bc d5 9a 80 3b 3d a3 f6 bb ec 4b 0a 3b
       -0.008507706 0.0039247074 -0.0075267837 0.0021102382
000140 61 3b 02 3b 33 54 7d bc ac 7a a2 3b bf 72 c2 bc
       0.0019871818 -0.015461969 0.0049584713 -0.023736356
000150 43 51 90 37 43 fc 12 bc 80 bb 20 bc 86 31 b1 bb
       1.7203978e-05 -0.008971277 -0.0098103285 -0.005407515
000160 a5 44 cb 3a 89 39 61 bc 7b 50 10 3c 1f 46 79 3c
       0.0015508129 -0.013746628 0.008808251 0.015214472
000170 66 9d 41 bc 2d fb 76 3c 75 bf 81 3c 0f 55 90 3b
       -0.011817312 0.015074533 0.015838364 0.004404671

conv2.lin.weight f4 [96, 64]
000000 34 42 e0 3c 47 11 f8 ba 5a b7 2f 3c aa 39 43 3d
       0.027375318 -0.0018926047 0.010724867 0.047662415
000010 f4 32 8a bc 0c 29 bd bc bc d2 4c 3d 97 88 a6 3c
       -0.01687 -0.023090862 0.05000566 0.020328803
000020 9d a3 1f 3d 5b 8a b6 bb 1e b1 3b bc e0 a6 1e 3d
       0.038974393 -0.0055706925 -0.011455802 0.038733363
000030 d2 18 19 3b 7d 4e 03 bd 66 9f 42 3d 61 ae 5a bc
       0.0023360741 -0.032057274 0.047515295 -0.013347239
000040 07 19 b4 3c eb 21 1b bc 70 ff fd 3c 98 fd af 3a
       0.02198459 -0.009468536 0.031005591 0.0013427017
000050 e9 1a e7 3b 0d b0 14 bb b3 5d 86 bc 27 50 57 3d
       0.0070527685 -0.0022687942 -0.016402101 0.052566674
000060 c6 fb dc 3c c5 19 8d 3c c2 22 2b bc 55 ce 3d bd
       0.026975524 0.017224202 -0.010445299 -0.04633935
000070 cd 5e 00 3c 0d 73 71 3a 30 c4 25 3d 11 70 48 3d
       0.007835102 0.00092105643 0.040470302 0.048935
000080 18 e4 51 3d be d7 df bc 95 c0 ed bb fb 07 d7 3b
       0.051242918 -0.027324554 -0.0072556236 0.0065622306
000090 2a 74 90 3b 59 a1 2d bb 64 95 52 bc d5 2b 0a 3d
       0.004408379 -0.0026493876 -0.012853 0.033733208
0000a0 53 9b 59 3c c9 8c e8 3c 00 74 0a 3d ec 21 0f bc
       0.013281661 0.028387444 0.033802032 -0.008736115
0000b0 15 89 a7 3c 4b 88 5b 3d 9d d4 51 bc 64 69 25 3d
       0.020451108 0.053596776 -0.012807039 0.04038371
0000c0 e0 70 75 bc 22 18 59 bc b6 01 30 3b 8b cb 3e 3d
       -0.014980525 -0.013250383 0.0026856489 0.046580832
0000d0 d8 ae 52 3d 9a 9d 20 bb 91 f9 24 bb cb e4 69 3c
       0.051436275 -0.0024508 -0.0025173167 0.01427574
0000e0 98 9b cc bc 96 97 84 39 aa 6d 49 bb 07 63 34 3c
       -0.024976537 0.00025289942 -0.003073553 0.011009938
0000f0 53 f5 10 3d a8 01 de ba e1 1b de 3c 75 59 4b 3d
       0.03539021 -0.001693775 0.027112903 0.04964586
000100 b4 82 82 bd 3c 04 2c bd 5c ec 03 bd 66 87 64 3d
       -0.06372586 -0.041996226 -0.03220783 0.05579319
000110 e4 33 32 3d 7c bd e2 bc 68 e3 70 bc b5 a5 e7 b8
       0.043506518 -0.027678244 -0.014702655 -0.00011045804
000120 f4 de 0f bb a3 95 2c bd e8 d4 59 bd 3d a1 45 3d
       -0.0021952959 -0.042134892 -0.05318156 0.048249472
000130 d9 b6 72 3d df c7 1a 3b 0c 68 9c 3c d8 b7 26 3d
       0.05925641 0.0023617668 0.019092582 0.04070267
000140 6b fd cb 3a b4 23 5f 3b 15 f8 90 bd 5e 73 cb 3b
       0.0015563195 0.003404838 -0.07078568 0.006208821
000150 86 53 58 bc 9c e3 fa ba 10 63 38 3c 04 60 0b bb
       -0.013203507 -0.0019141319 0.011254087 -0.0021266947
000160 fa 38 a7 bb 38 ea 17 bd b8 3f 2c bc 3a 72 9e bb
       -0.0051032277 -0.037088603 -0.010513239 -0.004835394
000170 e1 ec aa bb 96 c3 82 3c d8 bb 96 bd fd 1b e3 bc
       -0.0052162264 0.015962403 -0.07360047 -0.027723307
000180 99 2e 30 bd b9 60 2f bc 0f 98 89 bd 2e 00 76 bd
       -0.04301319 -0.010704213 -0.06718456 -0.060058765
000190 9d 4c 90 bc 74 ba 8c 38 32 47 80 bd 49 38 c8 bc
       -0.017614657 6.71045e-05 -0.062635794 -0.024440901
0001a0 a4 83 8c bb 09 7f 5c bc f7 6b a0 3d bd b1 f1 3b
       -0.0042881537 -0.013458022 0.07833093 0.0073759244
0001b0 f2 73 3c 3d a1 76 83 3d 84 76 62 bd ec 3a 4d bd
       0.04600901 0.06419111 -0.055288807 -0.05010502
0001c0 f1 a9 1e 3d 31 12 8b 3c af 2a ff 3c c9 20 0e bd
       0.038736288 0.016976448 0.031148283 -0.034699235
0001d0 be 68 e9 3c 57 62 ce bb bb c8 78 bc 61 78 82 bd
       0.028492328 -0.006298344 -0.015184577 -0.06370617
0001e0 d9 d6 38 3a a2 75 90 3b f2 65 95 3c c7 c4 9b bc
       0.0007051058 0.004408554 0.018237088 -0.01901473
0001f0 48 a5 47 bc bf 57 fa bb 5f a9 0f bd 23 db ff 3c
       -0.012185402 -0.0076398547 -0.035073634 0.031232422
000200 c7 f3 cd 3c 5a 12 04 3c f2 5b 74 3b 02 04 09 3c
       0.025140656 0.008061016 0.003728625 0.008362772
000210 0d bd ff 3c 9e eb 5a bd 45 d6 6e 3d 8f d9 83 bc
       0.031218076 -0.05344736 0.058309812 -0.016094951
000220 90 63 9c 3c 42 37 c9 bc 8d 70 a4 bc 24 16 1c 3c
       0.019090444 -0.024562482 -0.0200732 0.009526763
000230 3c eb 41 bd c1 9d 42 3c 09 47 6d 3c 70 28 8d bc
       -0.047343478 0.011878432 0.014482268 -0.017231196
000240 0c 15 d7 3c d1 ed 86 3d 56 0e 76 3c 6f 1c 09 3d
       0.026255153 0.06588329 0.015018066 0.033474382
000250 24 22 75 bd a9 d1 52 3c e0 fd 19 bd fd 5a b3 3c
       -0.059847012 0.01286737 -0.03759563 0.021893973
000260 b5 3e 34 bb a7 9c 85 3c a7 97 26 bd f5 bb c4 bc
       -0.0027503197 0.01631005 -0.04067197 -0.024015406
000270 e6 58 44 3d 03 69 1b bd 80 13 37 bd cd 28 b1 3c
       0.047936343 -0.037941944 -0.04469633 0.0216259
000280 81 0b 1c bd 6c 45 99 3c 0a 39 ee 3b e6 3d e0 bc
       -0.03809691 0.01870986 0.007269983 -0.027373265
000290 fd df c0 3c 19 47 da bc 0f de f8 3c 3c 63 70 3c
       0.023544306 -0.02664523 0.030379323 0.014672097
0002a0 33 82 68 ba 4d f6 44 bd 80 c2 6c 3d c1 45 e3 bb
       -0.0008869499 -0.048086453 0.057802677 -0.0069358055
0002b0 fb 97 2b 3d ef 55 73 3b f8 b3 83 bc 18 a4 74 3d
       0.041892987 0.0037130078 -0.016077027 0.059726804
0002c0 51 59 17 bd 25 a8 56 bc a7 fb f8 ba 5c e3 d7 bb
       -0.036950413 -0.013101612 -0.0018995897 -0.0065883826
0002d0 5d be 51 bd e7 8e 5d 3c 67 7f 86 bc d0 5c 81 bc
       -0.051206935 0.01352284 -0.016418172 -0.015791327
0002e0 a6 63 00 3d 11 0e f1 bc a0 fd 76 3b 67 82 24 bd
       0.031345032 -0.029425653 0.0037687793 -0.040163424
0002f0 86 88 77 bd 88 4c 7e 3a 52 c3 27 bc 7a e4 86 bc
       -0.060432933 0.0009700735 -0.010239439 -0.016466368
000300 d5 79 17 bc cc e9 65 3d 80 ee a7 3c 22 42 87 3b
       -0.009245356 0.05613117 0.020499468 0.0041277567
000310 fb 6d 91 3d 52 8a 8e 3c 4c 07 c7 bc 71 0a 52 bd
       0.07101055 0.01739994 -0.024295472 -0.05127949
000320 70 89 79 3d 21 d5 72 bb 96 a9 da bc 43 13 6d 3c
       0.060922086 -0.0037053304 -0.026692193 0.014469924
000330 da b5 fa ba f7 03 c3 3c 2f 7c 4b 3d b7 eb 89 3d
       -0.0019127682 0.023805602 0.049678978 0.06734412
000340 db c3 8c ba 75 c3 24 3c 2d 15 80 3c 55 47 24 bd
       -0.0010739522 0.010056366 0.015635097 -0.04010709
000350 2d 9a d0 3b 36 c2 cf 3c ec f3 aa bc 35 06 79 3c
       0.0063660354 0.025361162 -0.020868264 0.015199234
000360 5f e7 1e 3d 38 d4 ff bc 57 9c c5 bc 3c 8e a6 bb
       0.03879487 -0.031229123 -0.0241224 -0.0050828736
000370 05 de 29 bd fe 7a 36 3c 15 9c b9 3d 82 04 89 bb
       -0.0414715 0.011137722 0.090629734 -0.0041814456
000380 47 ed d8 bb 2b 7d 8a 3d 99 c5 c6 3c 32 70 3f 3d
       -0.0066200825 0.06762155 0.024264144 0.046737857
000390 f4 88 ac bc 16 0f b0 bc 2e 64 13 bd eb 84 38 3d
       -0.021061398 -0.021491569 -0.03598421 0.045048635
0003a0 1e 82 fd bc 2e 34 19 3d 39 86 a1 3c ef 0f f1 bc
       -0.030945834 0.037403278 0.019717323 -0.029426543
0003b0 0f 79 4d 3c 85 58 85 3d d7 ea 71 3d 5f 17 81 bc
       0.01254107 0.065110244 0.05906185 -0.015758215
0003c0 fe 6a 33 3c 2c d5 f8 bb ed 92 32 bd 20 9b 3f bd
       0.010950802 -0.0075937714 -0.04359715 -0.046778798
0003d0 a9 dd 81 bb 7d 9b e7 bc 5e 99 7d bd 92 6b b9 3d
       -0.0039631915 -0.028272385 -0.06191384 0.090537205
0003e0 1f 1d 9e bc 7b 7a 1b bd 4b 91 36 3d b9 03 32 3d
       -0.019300995 -0.037958603 0.044572156 0.04346058
0003f0 16 28 29 3c dc b1 96 bd 00 5e 04 bd ce c3 82 3d
       0.010324499 -0.07358143 -0.032316208 0.06385003

batch_norm3.weight f4 [96]
000000 f2 bc 51 3f a5 49 52 3f a0 fa 51 3f e3 f5 51 3f
       0.8192893 0.8214362 0.8202305 0.8201582
000010 af 68 51 3f 2a a6 51 3f 60 16 52 3f ba 36 52 3f
       0.8180036 0.8189417 0.8206539 0.82114756
000020 d3 04 52 3f b0 35 50 3f f4 27 52 3f b3 97 51 3f
       0.8203861 0.8133192 0.82092214 0.818721
000030 92 df 51 3f aa 1d 52 3f 53 0b 52 3f ea 26 52 3f
       0.81981766 0.82076514 0.8204853 0.8209063
000040 1a da 51 3f 61 0b 51 3f 87 06 52 3f f6 32 52 3f
       0.8197342 0.8165799 0.8204121 0.8210901
000050 31 ca 51 3f b7 eb 51 3f 47 17 52 3f dc e9 51 3f
       0.81949145 0.820003 0.8206677 0.81997466
000060 43 6e 51 3f 04 f2 51 3f c7 d7 51 3f 6a ac 51 3f
       0.8180887 0.8200991 0.81969875 0.8190371
000070 0a b6 51 3f f2 07 51 3f 84 bb 51 3f 04 c6 51 3f
       0.81918395 0.8165275 0.8192675 0.8194277
000080 1f bc 51 3f 99 41 51 3f 3f a8 51 3f 60 6c 51 3f
       0.81927675 0.8174072 0.8189735 0.8180599
000090 7c d8 50 3f d9 3c 51 3f fd 94 51 3f 0e c5 51 3f
       0.8158033 0.8173347 0.81867963 0.81941307
0000a0 71 ec 51 3f b6 ee 51 3f bf 84 51 3f 6e d3 51 3f
       0.82001406 0.8200487 0.8184318 0.8196324
0000b0 90 ad 51 3f c6 88 51 3f 04 bf 51 3f fb 3e 52 3f
       0.8190546 0.81849325 0.8193209 0.8212735
0000c0 86 3d 52 3f db ff 50 3f fd fd 51 3f 0b 3b 52 3f
       0.8212513 0.81640404 0.8202818 0.8212134
0000d0 e1 48 51 3f d4 d3 51 3f 9f 82 51 3f c6 d5 51 3f
       0.8175183 0.8196385 0.81839937 0.8196682
0000e0 ad c4 51 3f d8 b9 51 3f 77 c0 51 3f 74 46 51 3f
       0.8194073 0.819242 0.81934303 0.8174813
0000f0 08 86 51 3f ee e2 51 3f b8 86 51 3f 02 9e 51 3f
       0.8184514 0.8198689 0.8184619 0.81881726
000100 eb e8 51 3f 34 45 52 3f 72 3d 52 3f 8e f2 52 3f
       0.8199603 0.82136846 0.8212501 0.8240136
000110 15 aa 52 3f 84 d6 51 3f b5 43 52 3f f6 a1 51 3f
       0.82290775 0.8196795 0.8213456 0.8188776
000120 9b 82 52 3f bf b7 51 3f 7d ac 51 3f e9 2d 52 3f
       0.8223054 0.81921 0.8190382 0.82101303
000130 69 73 51 3f ff 4c 51 3f 54 ed 51 3f 3c b2 52 3f
       0.81816727 0.8175811 0.8200276 0.82303214
000140 a9 ea 51 3f b1 7c 51 3f 9a e6 51 3f 7f 5c 52 3f
       0.8199869 0.8183089 0.81992495 0.8217239
000150 50 1e 52 3f ba db 51 3f 67 0d 52 3f 57 8e 51 3f
       0.82077503 0.819759 0.820517 0.8185782
000160 c0 48 51 3f 24 f3 51 3f 92 ae 51 3f 88 90 51 3f
       0.8175163 0.8201163 0.81907 0.8186116
000170 9d 89 51 3f c5 10 52 3f fd 44 52 3f 6c b2 51 3f
       0.81850606 0.8205684 0.8213652 0.81912875
